hw1/weight.npy (npy, 808 bytes, 1 tensors)

array f8 [91]
0	0x3fc4bca9839efc89	0.16200751234825742
1	0xbf8bafe2a2228416	-0.013519068310701637
2	0x3f956b2e89bdc10f	0.020916678578431432
3	0xbf7e9e00a257f8d8	-0.007474901654403086
4	0xbf52094062e8d3dc	-0.0011008385441872914
5	0xbf60c69928ce737a	-0.0020478240389380483
6	0xbf92b96dc2eb8b68	-0.018285479566553603
7	0xbf76908b48d4ea1e	-0.005508941726754672
8	0xbf8ba40c07720eba	-0.013496488549442066
9	0x3fb154ef4c34f560	0.06770225153464571
10	0x3f65a5b024a79699	0.0026424827858473996
11	0xbf723ced5b0f8e93	-0.004452635927893705
12	0xbf75f65447bcc80f	-0.005361870975137974
13	0x3f8d622c15ef240c	0.014347404879929491
14	0x3f91625d2267e59e	0.01697679064270618
15	0xbf6de086ee2f804e	-0.003647101913415474
16	0xbf949e2273d75e9d	-0.02013448555029972
17	0x3f998c5b0934810b	0.024949476658663133
18	0x3fb48a618978ed8c	0.0802365265489497
19	0x3f8c04adebaae577	0.01368080020380334
20	0x3f81a0da60bb93d6	0.008607584073112944
21	0xbf78d7170a6d5b43	-0.0060645008114395575
22	0xbfa0fe80bb28b23c	-0.03319170269637481
23	0x3fa7931f1da98bee	0.04604432332123297
24	0x3fb7fd1fd9991564	0.0937061220402789
25	0xbfc8942703bc7b86	-0.19202125246462404
26	0x3fc421386ce41109	0.1572638065046095
27	0x3fe4f19331c294cb	0.6544891330601329
28	0x3f8c494dcd92e414	0.013811691127886085
29	0xbf8c7bb3a64975fc	-0.013907817375350177
30	0xbfac359f0186022e	-0.05509659665677123
31	0xbf7aa6f57b5542c9	-0.006506880677378654
32	0xbfa5737468508855	-0.041896474584306155
33	0x3fa4506851159c21	0.03967596044349642
34	0x3f8bb53b8f01f822	0.013529267598865916
35	0xbfa9c76cce7a1a1a	-0.05034961719961846
36	0xbfb32f347122ab10	-0.07493903886885911
37	0xbf61deaa878778f7	-0.0021813707974011015
38	0x3f66e0173fbdd3b8	0.0027924017030564706
39	0x3f3c82bf735c788e	0.00043503927314415207
40	0x3f5e0474d3b2438f	0.0018321171653818723
41	0xbf352ba30803b7bd	-0.000323035528721923
42	0x3f59d50f6dcb830e	0.0015766764328690205
43	0xbf653561cc50a08b	-0.002588931095051155
44	0x3f572fa96293aa7d	0.0014151720191032662
45	0x3f63f1dc8bde172c	0.0024346644922300844
46	0xbf594aa05d226d25	-0.001543671231536711
47	0xbf3d01abded4119a	-0.00044260450415858357
48	0x3f44b84d6249b183	0.0006323221064810511
49	0xbf5efc2a98abd403	-0.0018911758403963314
50	0x3f4d22016ee46c53	0.0008890635488428923
51	0xbf46ab3bd32ea80f	-0.0006917993654174131
52	0x3f5050eba2a24e3a	0.0009958554387922273
53	0xbf42aefd222f4a7f	-0.0005701766971191873
54	0x3f602b35782d1cb3	0.0019737285923927205
55	0xbfba5ddf5b1e5810	-0.10299488043378369
56	0xbf78b5d3e2d8b330	-0.006032779388573314
57	0x3fbee2296ab66173	0.12063845496448326
58	0x3f90712dab407c75	0.01605674131144182
59	0xbf877fe8b95a9d32	-0.011474435955575932
60	0x3fa6f882832a99a7	0.04486472941543989
61	0xbf7523cfd294c3b3	-0.005161105925524478
62	0xbfbfe9bc92f993a3	-0.12466028774504294
63	0xbfb2146cfca55ba9	-0.07062417190660021
64	0xbfc101920dd133c5	-0.13286042856853278
65	0x3fa4313aecb099f2	0.03943809642105468
66	0x3f92a87f1e8bb281	0.01822088836608993
67	0xbfaac3b83471ca49	-0.0522744716662556
68	0xbfb4f3c9b4c38a12	-0.0818449083631452
69	0x3fc15caed16a9fe7	0.13564095712103993
70	0x3f93564bb33cc517	0.018883879484922064
71	0xbfcb63be4213dbd1	-0.2139814207691573
72	0xbfb3735108a6d701	-0.07597834073279942
73	0xbeec5cf77238c6a1	-1.3524604191325717e-05
74	0x3efdc7b822d58870	2.8400567477667273e-05
75	0x3f0fc538f47dc563	6.059722960472904e-05
76	0x3eff0187daf272d5	2.956960605314775e-05
77	0xbf3e71bb0e1e8c7c	-0.00046454254890643926
78	0x3f1c2405cbcd8d0e	0.00010734830261820516
79	0x3f36e89ae2f91ca0	0.0003495576993128389
80	0xbf4259abf178a3db	-0.0005600061003337946
81	0x3f16541fe6f065bd	8.517689433098267e-05
82	0xbf3e55313b76fefc	-0.0004628415294653935
83	0xbf35abceda17e24c	-0.0003306751260363824
84	0x3f62c25a6846d914	0.002289940430468049
85	0xbf5f8f4bea95af6f	-0.0019262544031688163
86	0xbf48e505ac9ff73e	-0.0007597234446163682
87	0x3f7201483203513c	0.004395753873002225
88	0xbf719c9648da8a5e	-0.00429972367206463
89	0xbf64a262fc3ba2e6	-0.002518838244089816
90	0x3f748f8c6a939f41	0.005019711018782237
