hw1/weight.npy (npy, 808 bytes, 1 tensors)

array f8 [91]
000000 eb 48 15 01 d8 78 e9 3f 9c ca 8b 2b 18 95 90 bf
       0.7960014363436846 -0.01619375005516109
000010 2c 83 13 16 29 ae 9c 3f 77 bb 91 d8 7b 73 92 bf
       0.02800811955683284 -0.01801866063436416
000020 df 13 2a 9b f0 45 72 3f 38 18 f5 b5 da 57 76 3f
       0.004461231105442358 0.00545487817664108
000030 56 1c da 4f 79 89 9f bf f6 9a 04 30 3b 33 69 3f
       -0.03079785871389292 0.0030761867530090204
000040 5f ad b3 e1 d0 c6 8e bf 03 a0 87 f3 a8 20 b0 3f
       -0.015027648818849824 0.06299835153151893
000050 9f bd bd c4 9d 81 7d 3f cd 1e 65 0d e9 19 64 bf
       0.00720368984535416 -0.00245376127273631
000060 b7 65 57 5b 5e da 9b bf eb 4b 90 52 12 d0 a1 3f
       -0.027200197529827465 0.034790585115977844
000070 db bb b5 a7 3d 54 94 3f b9 5e f3 2a 96 20 a2 bf
       0.01985260330314618 -0.03540486597347354
000080 f1 9d 0d 07 9c fd 84 3f 47 95 98 0b 27 5b a7 3f
       0.010249346699949565 0.04561731354287218
000090 5c 95 8a ec a8 0e 98 3f 0e 33 e1 f0 11 71 9d bf
       0.023493422925317517 -0.028751640631798962
0000a0 3a b7 f1 61 ae 89 99 3f eb 52 a9 f8 86 30 bf 3f
       0.024939274528541257 0.12183421679339872
0000b0 f0 98 63 61 b6 22 cd bf 9f dc f8 e7 ac 6b 9a 3f
       -0.22762183909725975 0.02580137410970151
0000c0 99 2e d0 e6 66 29 dc 3f ed 89 64 cc 22 53 e1 bf
       0.4400269750628723 -0.5413984291120052
0000d0 63 ef d9 25 b3 84 b4 3f f5 6b 31 d0 72 97 ec 3f
       0.08014983820060943 0.8934873644133164
0000e0 24 9d f3 a9 d0 e8 91 3f 4f 24 a7 bf 5f 5c 90 bf
       0.017489681599639387 -0.015977378914417802
0000f0 c4 14 e1 64 48 ba a9 bf 90 69 1c ee 77 26 4a 3f
       -0.05024934989391164 0.0007980428310674793
000100 22 f5 32 d1 0d 93 a7 bf a6 c6 5d c7 c4 2f 9d 3f
       -0.04604380778025986 0.028502535503725078
000110 e4 13 a1 d4 7f b4 86 3f b7 16 ee b5 4f 08 a7 bf
       0.01108646266596653 -0.0449852857191621
000120 ef 26 74 29 70 3c b0 bf 11 13 5a 3f 84 2c 61 bf
       -0.06342221271566094 -0.0020964224775660363
000130 6c c4 35 2f 17 f5 64 3f 79 49 92 d7 95 3f 39 3f
       0.0025582745380963636 0.00038525970701033075
000140 1f ab e5 ae 6b 45 5d 3f 18 78 28 ed 2b a0 3c bf
       0.001786570700995589 -0.0004367930643257591
000150 50 f9 78 2e b9 63 59 3f 0e 98 19 cc f9 bc 62 bf
       0.0015496548093235259 -0.0022873762944071235
000160 11 66 9d 19 d0 93 57 3f d0 61 2b db b5 5c 61 3f
       0.00143904993315969 0.0021194030644944087
000170 0f 69 df 54 eb bc 57 bf ed c5 be a9 fd 13 48 bf
       -0.0014488504561912007 -0.0007348049725718876
000180 97 09 8c 04 6a 6a 38 3f b1 d3 b3 a7 0b fd 5f bf
       0.0003725537140299105 -0.001952420598908971
000190 aa 4c 83 b6 8b 1a 4b 3f f7 ca ba 79 94 4d 42 bf
       0.0008271391098112664 -0.0005585646608408924
0001a0 f8 97 8a c4 58 b9 44 3f 33 64 e1 37 21 e5 4a bf
       0.0006324466167668677 -0.0008207714270255295
0001b0 ab f8 34 0d e7 6e 60 3f aa 4a 39 8a e4 9a c9 bf
       0.0020060074545248017 -0.20003945111473814
0001c0 13 61 87 2b 60 64 ba bf 96 37 82 3a ec 74 d0 3f
       -0.10309411108699278 0.25713639940010447
0001d0 55 b5 71 ab 7d 7d bb 3f 4d 05 37 e0 33 2c 98 bf
       0.10738358913086661 -0.02360611968993469
0001e0 16 db 71 70 5b a8 af bf 30 ce f4 a6 3e 8b 8f bf
       -0.06183133838287895 -0.015402307005024957
0001f0 e4 71 34 15 1d 1b bf bf fd 3b 52 fc e3 d6 c0 bf
       -0.12150747077652785 -0.1315579397237058
000200 53 ff 04 82 2a 81 c2 bf f5 38 63 1f 21 f4 cc 3f
       -0.14456683491334363 0.22620023758503974
000210 48 37 e7 87 9f 25 ad bf 8d 8a 29 fe 4a e2 c4 bf
       -0.05692766698812918 -0.16315591249720676
000220 3c b2 61 22 a4 ec cb bf 2a b4 10 05 c1 54 d7 3f
       -0.2181592147711785 0.3645479726281474
000230 3b 59 4a d2 af de b3 3f 8f 3b d0 f0 98 94 d5 bf
       0.07761668094676548 -0.3371946670239873
000240 6e 45 dd e9 38 6a a5 3f 5f a3 38 ed ea 52 03 bf
       0.04182603697575869 -3.685740889764507e-05
000250 ff a3 3b 04 8d 37 0c 3f b8 52 9a f9 4e 22 1f 3f
       5.381964777290831e-05 0.00011876685166562872
000260 a3 97 c8 43 1d 36 11 bf 96 cd 9f dc fb 0d 3a bf
       -6.56562196544573e-05 -0.00039756201715520614
000270 54 42 be bf 4a af 2b 3f 32 9d b7 9a 8b 8f 26 3f
       0.00021121776069012394 0.00017212466387593047
000280 70 0a b3 d5 78 8f 46 bf bf 32 0e fa f0 f9 3e 3f
       -0.0006884899152271428 0.00047266133520266687
000290 56 7d 5a be b8 a1 1a bf a2 a0 8f 27 e3 7a 3f bf
       -0.00010159196934943679 -0.00048034711613676774
0002a0 68 ab b4 c0 a5 85 51 3f 87 c1 67 2b 2e 65 06 bf
       0.0010694616965547191 -4.2715522272976243e-05
0002b0 61 27 09 60 fa 5a 40 bf 4e 87 f7 78 0d 37 42 3f
       -0.0004991266760694218 0.0005558791908095524
0002c0 65 5a b6 16 90 c0 27 bf fe c5 5b aa 41 3e 5d bf
       -0.00018121489425189648 -0.0017848626388822226
0002d0 d1 cb 1d 00 c1 8a 62 3f
       0.0022634286441926906
